OLD/best_lstm_model.pth (torch, 705743 bytes, 12 tensors)

lstm.weight_ih_l0 f4 [256, 275]
00000000: 9e06 823d 14c1 4b3e 0dcb 863c d526 98bb
00000010: cfee 653d 0671 3f3e 6489 cfbc 0da8 d23d
00000020: 6349 dc3d 003e 32bd 9e3b 2bbd 5115 343d
00000030: 72bd 993d e1ee 8b3d b041 093e f1cc 973c
00000040: c806 053d 46bd ebbd f3be ab3b 60c8 59bd
00000050: 9d7b 783c 04ed 443e 3bee 5a3d 36cf 5b3d
00000060: 325d 003e dfc5 ec3d cf64 3a3e 3aad b13d
00000070: 4021 b5bb 18fc 4dbc a923 243e c41c ed3d
00000080: b29e ed3d 5122 e5bc 4dc7 b13c af68 a93d
00000090: 3b24 383e d526 2b3e b7c3 d33d dd06 87bc
000000a0: 060c df3d e2c5 47bd 549a b43c 4330 2d3e
000000b0: 437c 293c d3a5 c83d fddf f8bc 7653 12be
000000c0: 0472 ca3c 9f39 71bd 591a 8e3d 0cba 2f3e
000000d0: bd59 0d3d 5127 a23d 2621 253e 3b93 ff3d
000000e0: c88f 043e 1e43 19bd c60c de3c 2ad4 e43d
000000f0: 4d77 2a3e f49b 98bd 0b31 383d 7c8e 8a3d
00000100: 8856 0c3e fd01 3f3e 5767 573e 80d3 513d
00000110: 2a00 af3d ffc9 2fbd ca06 b0bb d551 093d
00000120: 2d75 ddbc 6aeb d0bc c000 72bd d3eb 9a3c
00000130: 43ba c03d 53b2 1a3e 43dd cb3d 6638 933d
00000140: 537c eb3b 8f39 a43d 3489 ab3d 5b68 263e
00000150: bb5c 143e 5172 4abe 838c 2fbd b9d2 1a3e
00000160: fa1a 05bd 31bb fe3d beaf 1a3e 54fb 8d3d
00000170: c57b 83bc a7e8 c73c 9d57 c23d d269 173e
00000180: 0694 ea3d db19 4d3e 6cf6 62bc d4c6 483e
00000190: 2cab 3c3e f25b 54bc 3ce0 1a3e 6e35 193c
000001a0: 0b10 17be da5f 4c3e bae5 213e 7be0 793d
000001b0: 70ec 243b 5bca 0b3c 0ffe 88bc d5e8 3a3e
000001c0: cc8c 413e 3c13 653d ddfe 083c 48db 1a3e
000001d0: 7dcc 57bc fdcf 973d 872c f73d 7d5b 3a3e
000001e0: 2a81 be3d fb25 4dbc 2225 283e 6999 37bb
000001f0: b43f 92bc 2e3e 813a 2401 8abc bbf0 f63c
00000200: 304c 603d 4e42 fc3c e662 32bd 04ce 82bd
00000210: 949e 1b3e 4043 443e b88d dcbc 46c5 80bd
00000220: a89b e8bc bee1 e4bd 4b34 423b 965c df3d
00000230: 320e bebc 6814 db3c 9e80 c3bc 3ab9 e93d
00000240: 5a94 1cbd aa08 223e cec5 9f3c 4a17 e8bd
00000250: a78c aabd f7ef 533e be18 ba3d cec8 84bd
00000260: 3c49 2e3e 786c 523e 8213 bebc bc8c 193e
00000270: 915c a73d 2825 8f3d 88a1 abbd ff0f 10bd
00000280: b0ed 8cbb c6cc 8ebd c57d 3a3e da73 1fbe
00000290: 47ed 7c3e d96e 05be cd5c 98bd d940 3b3e
000002a0: a2b9 3d3e fa6e 0d3e 2da4 49bd 4fe3 243e
000002b0: 44c4 fd3c 4556 46bd e776 083e 2796 ef3d
000002c0: 3846 7e3d 3b67 37bc 368c 953d 457d 403c
000002d0: 105a 2ebd 2ad9 243c cfdd 353e c226 723d
000002e0: acfb a2bc decf 51bc 23e2 473d f316 79ba
000002f0: ea29 3abd 8ca0 adbd 4de2 e73d 9426 063e
00000300: 02c5 0a3e 8728 533e 2be0 ee3d 674f 1d3e
00000310: cee2 2f3e a80d ce3c d49b 7ebd 9f63 5fbd
00000320: 6fef b3bd 07f2 debd 6265 1e3d 6d3d 9e3c
00000330: 9535 74bd f7de 1cbd d7e9 823d 1a14 9f3c
00000340: 95fd 303e f0ac 2abb d987 4ebc 67b4 483d
00000350: cb11 6f3e 28b7 553e 280f 073e af4a ba3d
00000360: 66da 513d bfb9 8fbd d468 c43a 3141 153e
00000370: 2434 e6bd 84ce 7b3d 60e7 3c3c 496b 2b3e
00000380: 5610 ddbd f3ce 063e e017 2fbc e9e7 c6bd
00000390: 3a82 3bbd 88f2 8b3d 92b4 013c 07ef 31be
000003a0: 7c36 9c3d a898 ffbd 113d fcbd 525c 043d
000003b0: d890 9c3d 0433 27bd 7d55 b13d f041 96bd
000003c0: 7709 bdbc cad9 683c 0c03 3ebe ee63 513d
000003d0: 2988 613d beaf e13b 3869 013e 9276 d3bd
000003e0: 6acf 1b3d c866 523e e2fe 1e3e cf96 bbbc
000003f0: b495 9ebd 96fc 6fbc 7c2a c93d 6d7c ca3d
0.063489184 0.19897872 0.016454244 -0.004643301 0.05613595 0.18695459 -0.025334068 0.102859594
0.10756185 -0.04351616 -0.041804902 0.04396564 0.07506837 0.06832672 0.13403964 0.01853034
0.03247717 -0.115107104 0.005241269 -0.053169608 0.01516619 0.1923104 0.05344985 0.05366441
0.12535551 0.115611784 0.18202518 0.086756185 -0.0055276453 -0.012572311 0.16029228 0.11577752
0.11602534 -0.027970465 0.02170148 0.0827192 0.17982571 0.16714032 0.10340064 -0.016482765
0.10890965 -0.0487727 0.022046246 0.16912942 0.010344568 0.097972535 -0.030380243 -0.1428965
0.02471257 -0.058892842 0.06938619 0.17160815 0.03450941 0.07917655 0.16125926 0.12479254
0.12945473 -0.037417524 0.0271057 0.111732796 0.16647072 -0.07451621 0.044968646 0.06765458
0.13704884 0.18653102 0.21035515 0.051227093 0.08544953 -0.042917248 -0.005371903 0.033525307
-0.027033413 -0.02550288 -0.059082747 0.018911278 0.094105266 0.15107088 0.09954312 0.071884915
0.0071864515 0.08018791 0.08375779 0.16250746 0.14488499 -0.19770171 -0.04285861 0.15119447
-0.03249643 0.12438048 0.15106103 0.06932703 -0.016050229 0.02440293 0.09489367 0.14786461
0.114540145 0.20029394 -0.013852697 0.19607097 0.18424672 -0.012961375 0.15124601 0.009351118
-0.14752214 0.1995844 0.1581029 0.061005097 0.0025165342 0.008532132 -0.016722707 0.18252881
0.18901366 0.055926546 0.008361545 0.15122712 -0.013171312 0.074127175 0.1206904 0.18198963
0.0930198 -0.012521262 0.16420415 -0.0028015024 -0.017852642 0.000986045 -0.016846247 0.030144086
0.054760158 0.030793335 -0.04355135 -0.063869506 0.15197212 0.19166279 -0.026923046 -0.06287627
-0.028394535 -0.111758694 0.002963322 0.10906331 -0.023200128 0.026743129 -0.02386504 0.11412282
-0.038227417 0.15823618 0.0195035 -0.11332567 -0.083276086 0.20697008 0.090867504 -0.06483613
0.17020124 0.2054919 -0.023202661 0.14995092 0.081719525 0.06989509 -0.08380419 -0.035171505
-0.0043007955 -0.06972651 0.1821204 -0.15571538 0.24699889 -0.13030566 -0.07439575 0.18286456
0.18527845 0.13811865 -0.049228836 0.16102336 0.030977376 -0.048422117 0.13326608 0.11698561
0.062078685 -0.011194046 0.07302134 0.011748617 -0.04256636 0.010061542 0.17760395 0.059118994
-0.019895397 -0.012805907 0.048799645 -0.0009502016 -0.04545013 -0.084778875 0.1132246 0.13100654
0.13551715 0.20620929 0.116638504 0.15362321 0.17176363 0.025152996 -0.062160328 -0.054538365
-0.08785903 -0.10886007 0.038670905 0.0193164 -0.059621412 -0.038298573 0.06392258 0.019418765
0.17284234 -0.002604302 -0.012605631 0.04900017 0.23346631 0.2087065 0.13189375 0.09096276
0.05123367 -0.0701785 0.0014984854 0.1457565 -0.11240414 0.061476246 0.0115297735 0.16740145
-0.107941315 0.13164882 -0.010686845 -0.09712202 -0.04577849 0.068333685 0.0079165865 -0.17376338
0.076275796 -0.12480289 -0.12316335 0.032314606 0.07644814 -0.040820137 0.08658884 -0.07336795
-0.023075802 0.014212081 -0.1855585 0.05112069 0.055061493 0.006887405 0.12637794 -0.1032535
0.038039602 0.2054702 0.15526918 -0.02289906 -0.07743397 -0.0146476235 0.098225564 0.098870136

lstm.weight_hh_l0 f4 [256, 64]
00000000: 419a 2f3e 7858 9cbd cb68 043e 6f74 3fbd
00000010: b561 c63d 08b9 00bd c977 bf3d 9736 5fbd
00000020: 659c 93bd c486 21bd 707f 903d c6bf 693d
00000030: 599c 88bc b279 60bc 7a49 a33b d15a 0bbd
00000040: 275d bd3d ae8b 863d f27e f03d cf01 8e3d
00000050: c4f6 ebbd f28e 9d3d 63ca adbb 47e9 de3d
00000060: d47c ab3d f345 22be 9bbb d73c b568 67bd
00000070: 0fd1 fd3c af21 22bd 618f b43c 81c9 a73d
00000080: 716f 3fbd 796b 8ebc b8cb e8bd 4828 ffb9
00000090: bd57 523d d9ff 393e 4761 ae3d 720b 863d
000000a0: a9a5 be3b 2d7c 273d 4ca3 a23d e31a 6abd
000000b0: 5cf5 48be ac1d bebd a838 d3bd adbd 753d
000000c0: 1975 b8bd efb3 ddbc 0322 42be 0dbd 0ebe
000000d0: 8b9d 6b3d d38e 25bc 4e5f ddbd 33dd bcbc
000000e0: 29d2 073e 5496 133e 0e35 99bd 6385 20bd
000000f0: c016 fc3d f0be 2abe 9fd2 01be 511e 6abc
00000100: 04d2 b13e 79aa fbb9 b812 fe3d aadc 47bd
00000110: a193 d53d 15b8 06bd 6e46 3ebe 93fb 353e
00000120: f5e2 acbc 03f1 52be d04b a3bd ceec d63c
00000130: e479 28be 3eb7 873e 284d dd3d 9d48 3a3d
00000140: 722d 43bd d9a5 a3bd 41b5 e4bd 0194 43bc
00000150: a279 d3bd 8c88 ca3d cb28 4f3d 68af 59bd
00000160: 626f 9b3e 833e 53be f8ce f9bd d021 d63b
00000170: 32d1 e5ba d5e6 9a3d 0099 5d3e 42ee e93d
00000180: 5fd7 1b3e 110e 073e 4a37 233c 3a17 6fbe
00000190: 4465 1c3e fbcb 1f3e 07d2 4a3c 9ccf 5d3e
000001a0: 9a92 55bd 10df cebd 6d8f 7e3e b46a 063c
000001b0: 1207 4bbe 5cb6 8b3d 6707 2dbe 3e19 4b3e
000001c0: 6a9f 943d b207 843c 8c48 0abd 0e54 87be
000001d0: 28fd c6bc 66b6 fe3d e060 80be 56cd bcbd
000001e0: 6765 d0bd c0b3 d73c 9791 273c d3b8 c0bd
000001f0: f4aa 1b3e cb16 39be 74e8 6a3d 5b88 db3d
00000200: 1935 123d 81ad a73d 8686 b63d 5bab d2bb
00000210: f273 3a3e 111c c1bd f399 d03c 2dff a4bc
00000220: c121 123c dcbb 0ebe a2a6 193d ad91 1fbd
00000230: aeb5 5a3d f59d 213e 2d98 94bd 7c07 27bd
00000240: 7cc0 9b3d 6971 17bd 6d2c d3bd 2be7 82bd
00000250: dc7f 7a3d b111 a63d a606 f8bd e8d8 bb3d
00000260: 7c11 c03d 8fa6 28be d31a 283d e24b b2bc
00000270: 57f0 cf3b d826 1d3c a3d0 84bc b6e6 f73b
00000280: 21eb 9c3d ac3a 42bc 3b89 c8bd 2db0 74bd
00000290: 344a 5a3d 8064 233e 3b6d c9bc cc5d ce3d
000002a0: efe5 3e3c b183 443d 2445 ba3d 5def 33be
000002b0: bf24 b8bc 1eed a5bd 1b74 f2bd f5cb 553c
000002c0: a8b2 f43d 3ae5 c1bd 68f3 643d 160b dc3d
000002d0: 8bd2 183c 69c8 2bbd 30fd 8d3c 104c ef3d
000002e0: d928 db3d 084e 243d 3b6f f83d dc91 8d3d
000002f0: c570 b23d 60dd 1fbe 5387 b6bb a809 97bd
00000300: bf6a 25bc 63e6 f13d 2a1a 16bd a21b fd3d
00000310: 42a0 fc3d a428 0dbd d12a f2bd 2e4e 74bd
00000320: bc70 293b e701 7fbd b0ba 303c 6049 cdbd
00000330: 149c c9bd 277e 86bd 7056 8abd 80f5 f43c
00000340: 382a a7bc c417 8dbd 4800 673d 90d3 50bc
00000350: 7804 26bd 3ab6 b63d 14ab 203d e96c 04bd
00000360: bd8a 443b 57f7 223d de9a e4bd 6d2e 4e3d
00000370: e26c e4bd b218 8abd 1170 f23d ac6e 44bd
00000380: c1de efbd 6655 e1bd dc1d a53d 7059 9e3c
00000390: 8bb6 47bb 3b3a 413d 5d1f f2bd 2a3e 343d
000003a0: 5352 4ebd e66a c83d 45ab 4ebd 275c bf3d
000003b0: b00a febd 7cfa 21bd 825e bebd 2c84 6cbc
000003c0: 2489 f63d cc3b 4ebd 1cfb a5bd cc2c a73d
000003d0: ba9e 8e3d aabb f33d ac38 3b3c 43b8 7d3d
000003e0: 48f4 dc3c 42d3 a9bc 8cb3 92bd e0f0 68bd
000003f0: 4295 623d 7265 84bc 2c81 e4bd 4058 c3bc
0.17148687 -0.076340616 0.129306 -0.0467419 0.09686605 -0.03142646 0.09349019 -0.05449542
-0.07207564 -0.039435163 0.07055557 0.057067655 -0.016676115 -0.013700889 0.0049831243 -0.034022156
0.09246283 0.065696105 0.11742963 0.06933939 -0.11521676 0.0769328 -0.0053036674 0.10884338
0.083734185 -0.15846996 0.026334574 -0.05649634 0.030983476 -0.039582904 0.022041025 0.08192731
-0.04673714 -0.017385231 -0.11366981 -0.00048667402 0.051353205 0.18164004 0.08514648 0.06545152
0.005818088 0.040889908 0.07941303 -0.057154547 -0.19624847 -0.09283003 -0.10313541 0.059995342
-0.090067096 -0.027063338 -0.18958287 -0.13939305 0.05752329 -0.010104853 -0.108091936 -0.023054695
0.13263763 0.14412814 -0.074808225 -0.039189707 0.12309027 -0.166744 -0.12678002 -0.014289455
0.34730542 -0.00048001463 0.12405914 -0.048794426 0.104285486 -0.032890398 -0.18581554 0.17771749
-0.021104315 -0.20599751 -0.079734445 0.026235964 -0.16452748 0.2650699 0.10805732 0.045479406
-0.047650762 -0.07990617 -0.11167384 -0.011937142 -0.10325934 0.098893255 0.050576013 -0.053145796
0.30358416 -0.20629315 -0.12197679 0.0065347925 -0.0017533659 0.07563559 0.21640396 0.11422397
0.15218876 0.1318896 0.009961912 -0.23348704 0.15273005 0.15605156 0.012379176 0.21661228
-0.052141763 -0.101011395 0.248594 0.008204151 -0.19826916 0.06821892 -0.16897355 0.19833848
0.07256968 0.01611695 -0.033760592 -0.26431316 -0.024290636 0.124371335 -0.2507391 -0.09218852
-0.10175591 0.026330829 0.010227582 -0.094102524 0.15201932 -0.18075101 0.05735059 0.10719367
0.03569517 0.0818739 0.08912377 -0.0064291186 0.18208292 -0.09429181 0.025464034 -0.020141209
0.00891918 -0.1393885 0.03751243 -0.038957287 0.05339592 0.15782912 -0.07255588 -0.040778622
0.07605073 -0.03697339 -0.10311208 -0.06391748 0.061157092 0.08108843 -0.12110643 0.09172231
0.09378335 -0.16469787 0.041041207 -0.0217647 0.0063457894 0.009591781 -0.016212767 0.0075653447
0.07662035 -0.011854809 -0.097918 -0.059738327 0.053293422 0.15956306 -0.024588218 0.10076484
0.0116515 0.047977153 0.09095219 -0.17571779 -0.02247846 -0.08101867 -0.118385516 0.013049115
0.119481385 -0.094675496 0.055896193 0.10744302 0.009327541 -0.041939173 0.017332643 0.1168443
0.107011504 0.04011348 0.121305905 0.06912586 0.08712915 -0.15611792 -0.005570331 -0.07374889
-0.010096251 0.11811521 -0.036646046 0.12358786 0.12335254 -0.034462586 -0.11824573 -0.05964487
0.0025854548 -0.062257674 0.010786697 -0.10023761 -0.09844223 -0.065670304 -0.06754768 0.02990222
-0.020405874 -0.068892986 0.056396753 -0.012745753 -0.040531605 0.08921476 0.039225653 -0.032330427
0.002998992 0.039786663 -0.11162351 0.050337244 -0.1115358 -0.067429915 0.11837781 -0.047957107
-0.11712409 -0.110026166 0.08062336 0.019329756 -0.0030473794 0.047174674 -0.11822388 0.044004597
-0.05037148 0.09786014 -0.050456304 0.093437485 -0.12404382 -0.03954552 -0.0929537 -0.014435809
0.12037876 -0.050349995 -0.08104536 0.08162841 0.069638684 0.119010285 0.011427086 0.061943304
0.026971951 -0.020730618 -0.07163152 -0.05687034 0.055318125 -0.016161654 -0.1115745 -0.023845792

lstm.bias_ih_l0 f4 [256]
00000000: f737 0a3e 8d49 473e ebdc 1a3e 59bd ee3d
00000010: 0757 1cbe 65a8 a63d 4376 033d ee29 edbc
00000020: c043 2e3d 7d90 e53c bc0d 13bd 82d7 533d
00000030: 9057 1ebe b629 313c 3f1b 5f3d 4fd2 9c3c
00000040: ff68 653d a147 b0bd d99a ab3d 2758 69bd
00000050: d548 86bd 463f ea3c d610 923d 709c fcbd
00000060: fc43 2e3e 125f ae3d a33a 83bd 3b0a 19be
00000070: 4389 16be 8f8d 97ba 95b1 18bb 866d 34bd
00000080: 424d a93d 0422 df3d daf1 47bd 3a34 b13d
00000090: df89 d8bd b070 cf3a 1019 013e 7d45 c63d
000000a0: fc07 ee3d 2c49 bbbd 1c31 183d 4141 503c
000000b0: 6860 a037 a2fe 8abc 3c07 c43c e715 cfbc
000000c0: c3b4 c9bc 31a2 6c3d 1715 223e 84fb 6dbd
000000d0: 4d16 85bd ff74 8d3d 7a4c e03c 3113 113c
000000e0: a56a db3d 717c 46bd 9271 4dbc 7a16 003c
000000f0: 8aca 783c 875e 0fbc 2e69 24be 8db9 b63b
00000100: 6de6 333e d69b 6bbd 59ac a3bd 0668 9e3d
00000110: 3563 fdbd 906f 57bc bca9 f33c 27b5 fcbd
00000120: 48de 52bb 3739 613d 70e1 ecbc b420 88bd
00000130: f13b 43bd c84d d9bc 539b c9bc b62f a43d
00000140: 5868 0cbd 9e69 99bd 4ee9 713d ec81 c13d
00000150: c0ba 2bbc 69db 573d 4a5b 9d3d b117 d9bd
00000160: 62e6 a8bd d0bb 1d3e 9706 06bd 1412 393d
00000170: 53ae 463d 6f89 a0bd 301f bc3d 8a41 e1bb
00000180: 5481 e83d 018e 2dbe 7d96 83bd 57dc aa3d
00000190: c0e4 033d 3b2a 113d 5c64 85bd a76b e33d
000001a0: f93b db3d abbf 81bc 58ca d1bd 98d6 873c
000001b0: a604 dd3d ab6f e5bd 651a 953b 9517 8c3d
000001c0: 10d3 96bd 86cb 6bbd ee83 133e e5a6 0b3e
000001d0: 52e0 21be 7235 fcbd abd0 3b3b a449 433d
000001e0: 5b22 d6bd 271a 0f3d 2557 3f3d 989a bb3d
000001f0: 8f5f 9ebd f698 3cbd 2376 a53d 142d 4fbd
00000200: c4e6 f8bd bbf4 153e 79ad 8a3d 2c2f 93bd
00000210: 6b3f 063e c3b4 efbd ac64 0f3e ac71 ebbc
00000220: f4b4 b2bd 1b9c 31bd 290e 423d 0fc6 e53d
00000230: fdd9 993d c0bb 363b 8744 93bd 72b9 96bd
00000240: bfe6 9fbd 96cc bdbd 41cc 7c3c 458c cfbb
00000250: 0373 f23d c9c3 4ebd 340c 18bd 8acf 98bd
00000260: 1690 b73d a202 9a3d 7404 943d 67b2 f0bc
00000270: 8da6 293d 7af5 a23c 1726 e6bc e593 41bd
00000280: 95a8 403d da4a c3bd 2ef3 ed3d 5cc8 1fbe
00000290: a6f2 e53d 7025 41bd 13fd e1bd 1049 143c
000002a0: 8075 ca3d 26f9 b1bd e6c4 3d3e e71d 423d
000002b0: b0b1 bfbd 0424 4e3d 4016 cd3c c23d c9bd
000002c0: 10dc 7abc 96ed 8e3d de54 e5bd 8252 7cbd
000002d0: 78e9 973d 2ef5 f1bd 8b00 8dbd a410 92bd
000002e0: d819 b7bc f7c1 5fbd 188a 283e 2aea a0bd
000002f0: 5e12 9abd a6ae cf3d b8e5 b93c 0866 783d
00000300: e3e7 3abd 7f7b cdbd 47c2 25bc 3ccf cf3d
00000310: aa64 05be 5f90 febc d01f 2abe 635a 8c3d
00000320: 45de 1fbc 5749 d53c 44e9 04be aa84 c2bc
00000330: 0d37 b7bd 3fee 1c3e d235 fdbd bca4 243d
00000340: db26 27be c47f 16bd e417 b6bd 4390 d53d
00000350: 2fd1 26bd 52b0 3a3c faed 24be 048c e23d
00000360: 1999 52bd 9481 213e 00f1 173b aa4e e6bc
00000370: 8716 733d 9189 11be c690 373e 9072 bc3c
00000380: 473b a03c 21c6 f0bd e392 5d3d 9fff c2bc
00000390: 1e87 3d3d b6e5 2c3d a574 f63d 0a96 0b3e
000003a0: 245d c9bc 7326 b53d 2c53 fabd 4642 c33d
000003b0: 9902 cabc a7e8 ca3d 07c2 49bd f3c3 013e
000003c0: 5fa4 8bbc 5e6d e0bc ca92 2e3c 4614 ca3b
000003d0: 0059 33be 77ee 5dbd af8f 54bd 97bf 7fbc
000003e0: 77c5 7ebd d46f 453d 214f 9dbd 5137 69bd
000003f0: afe3 9b3d c7e9 8bbd 70e8 33be f191 a23d
0.13497911 0.19461651 0.15123336 0.11657209 -0.15267573 0.081375875 0.032095205 -0.028950658
0.04254508 0.028022999 -0.03590177 0.051719196 -0.1546309 0.010813167 0.054469343 0.019143252
0.056008335 -0.08607412 0.08379144 -0.056968834 -0.0655686 0.028594624 0.071321175 -0.123345256
0.17018121 0.08514227 -0.064076684 -0.14945309 -0.14700799 -0.0011562573 -0.0023299207 -0.044049762
0.08266689 0.1089516 -0.048814632 0.086525396 -0.10573172 0.001582643 0.12607217 0.096812226
0.11622617 -0.09144816 0.03715621 0.01271087 1.9118379e-05 -0.016967122 0.02392923 -0.025278999
-0.024622327 0.057771865 0.15828358 -0.058101192 -0.06498394 0.06907081 0.027380217 0.008854673
0.107137 -0.04845852 -0.012539284 0.007817859 0.015185008 -0.008750564 -0.16055748 0.0055763186
0.17568369 -0.057521664 -0.07991857 0.07734685 -0.12372438 -0.013149157 0.029744022 -0.123392396
-0.0032175947 0.054986205 -0.02891609 -0.066468626 -0.047664586 -0.026526347 -0.024610197 0.08016913
-0.034279197 -0.07490848 0.059060387 0.09448609 -0.010481536 0.05269948 0.07683428 -0.10600222
-0.08247067 0.15403676 -0.03272113 0.045183256 0.048506092 -0.078387134 0.09185636 -0.006874268
0.113527924 -0.16948701 -0.06425188 0.08342808 0.032200575 0.035440665 -0.06513283 0.111045174
0.10704798 -0.015838465 -0.10243672 0.016581818 0.10791902 -0.112029396 0.0045502656 0.068404354
-0.07364476 -0.057567142 0.14405796 0.13637884 -0.15808228 -0.123148814 0.0028658311 0.04767765
-0.104557715 0.03493705 0.046713967 0.09160346 -0.0773307 -0.046044312 0.080791734 -0.0505801
-0.1215339 0.14644139 0.067713685 -0.07186732 0.1311013 -0.117043994 0.14003247 -0.028740726
-0.0872592 -0.043361764 0.047376785 0.11219417 0.07512281 0.0027882904 -0.07190805 -0.0735959
-0.07807683 -0.09267537 0.015429557 -0.00633386 0.11838343 -0.050479684 -0.037121013 -0.0746146
0.08963029 0.075200334 0.07227412 -0.029381944 0.0414186 0.019892443 -0.028094335 -0.047260184
0.047035772 -0.09535761 0.116186485 -0.15603775 0.11227922 -0.047154844 -0.11034598 0.009050623
0.098856926 -0.086900994 0.18532142 0.0473918 -0.09360063 0.050327316 0.025035024 -0.098262325
-0.015311256 0.0697891 -0.11197828 -0.061602123 0.074175775 -0.118143424 -0.06884869 -0.0713208
-0.02235119 -0.05462834 0.16458929 -0.07857163 -0.075230345 0.101407334 0.022692546 0.06064418
-0.0456313 -0.10033321 -0.01011712 0.10146949 -0.13026682 -0.0310747 -0.16613698 0.068531774
-0.009757583 0.026035948 -0.12979609 -0.0237449 -0.08946047 0.15325259 -0.12363781 0.040196165
-0.16323416 -0.03674294 -0.088912755 0.10427906 -0.040726837 0.011394577 -0.16106406 0.11061862
-0.051415537 0.15772086 0.0023184419 -0.028113682 0.059347656 -0.14212634 0.1792632 0.023003846
0.019559516 -0.1175654 0.05409516 -0.02380353 0.046271436 0.042211257 0.12033967 0.13631454
-0.024580546 0.08845224 -0.12222895 0.09534125 -0.024659442 0.09907656 -0.049257305 0.12672405
-0.017046152 -0.0273959 0.010655114 0.0061669676 -0.1751442 -0.054182496 -0.05189484 -0.015609643
-0.062200036 0.04820235 -0.07681108 -0.05693752 0.076117866 -0.06831699 -0.17569137 0.07937992

lstm.bias_hh_l0 f4 [256]
00000000: f4b9 383d edc4 763e 55be 643b d3d2 8d3d
00000010: 52f9 68bd 6325 08be 6b7a a93c 83ff 373d
00000020: b9f3 fabd 162c b5bc e8d5 9c3d b0c5 a7bc
00000030: cb55 c7bd 4aa5 ca3d 1b8a 2f3d c50b 2abd
00000040: c89d 85bd be3a ad3c dc65 713d 6793 46bd
00000050: cf90 cdbd 8e1e 7b3c 6b5e 11be b3d6 843d
00000060: 5400 713e ebbb c23d b38d 20be 9a35 bbbd
00000070: 81f2 453d f32c 91ba c69a a13d e6d4 543d
00000080: b6b7 4e3c 88fd 133d f85f ebbd b590 ba3d
00000090: 0aa8 0dbe 83dc a9bd 485d df3d aafb 3b3e
000000a0: ab89 da3c 3425 e43d 4689 413e 607d 48be
000000b0: a370 0a3e 22f5 7cbd df4d 323d c635 103e
000000c0: 395e 813d 42a6 e3bc 47a6 163e 1bee 88bc
000000d0: 6b6e 0abd 4792 7c3c 1a2a f33d e546 ad3d
000000e0: f56b df3d 613d 933d c393 81bd 3f19 27be
000000f0: ce1c 37bd 52e3 e1bc f6ee 17be 739e 2bbd
00000100: 750a ec3c 27fb c1bc ec9e 7fbe a1ae 5fbd
00000110: d354 fe3d e2d5 fe3c 58fe 193d a0cf 1bbe
00000120: ef7f 9bbd 5e46 423d 0d56 a53d eb0d 003c
00000130: 1c1e ab3c 3b29 cf3d 3ed6 e23d ae39 e0bd
00000140: 0b3c d4bb 3065 963c de3b c03d 00ae a0bd
00000150: 604b 713c a749 30bd 4568 123e 6805 773d
00000160: 6eed abbd 2e89 033d 8607 9cbd 30be 77bd
00000170: af6e 5a3d 3b81 4d3d 7a66 8b3c 2bbd dc3d
00000180: a028 1d3e 6a66 debd 8c18 25bc 09d0 ca3d
00000190: f090 acbc e4fd b3bd 5524 393d 54c1 243e
000001a0: 96d5 5dbd fc1c 463d ba1f d7bd fb86 603d
000001b0: 0cea 40bd 1f89 c6bd df5b 6a3d 2e0c 9ebd
000001c0: 1afc af3d 4cdf 6fbc a034 1b3e 219d 1c3d
000001d0: 7dff dabc 3cd1 fcbd 3ab0 eebd 43ec e63d
000001e0: 7ca0 eabd 6f2a 343d 33e1 d1bd de67 ebbd
000001f0: eafd 633c 8527 3bbd e4b7 58bd 80e2 67bd
00000200: 9cea 38bd d8bf 903d b2c4 ab3d 7647 803d
00000210: ffca e93c ed34 d3bd 0d50 643d cbd6 0fbd
00000220: d81c dabc 576d 71bd 548c 0dba ee1d a83c
00000230: 2307 64bd f04d a63d 86d6 793d b303 b23a
00000240: b189 39be e42a b9bd da61 a43d d062 a5bd
00000250: 18d1 cb3c ef3f 703d a3be e1bd bd00 37bd
00000260: 7d01 833d 20a7 fe3d ddc2 5cbd cce1 b5bd
00000270: d973 a33d 772e a8bd 50a9 e83c 4b49 b83d
00000280: 3e37 3d3c 86fd c0bd 9448 fcbd 6950 e4bd
00000290: 2a9f 323d 0838 4a3d 4dd6 33bd 04fd 84bd
000002a0: 65c9 083e e05e fabb 2c27 bf3c 47c7 f0bd
000002b0: d4c5 21bd c378 bbbd 00d4 92bd 48a7 53bd
000002c0: 721d 833d b059 26bc bca7 5fbd 06ed 08be
000002d0: fd2a 85bc 0473 65bd 64e9 f9bd 4053 fd3b
000002e0: a626 d3bd cf80 eb3d 5a8a 673d a80f bbbd
000002f0: ecd2 ca3b d4c1 a1bd 4256 fbbd 6c6a 9a3d
00000300: 935b cc3d f4b7 843c 2aac 1f3e ea4c f5bd
00000310: a34d ecbb 791c 0d3d 50ee 27be 2ae1 443e
00000320: 6d73 77bd 8f2d 403e a500 5d3d c829 83bd
00000330: 6963 f0bd aaec fe3d 0981 c23b 75e8 f43d
00000340: 15d2 e43c a75c 8a3d d36b 7ebc e269 c3bc
00000350: 7be7 f2bd 28d0 313d f567 c8bd da99 83bd
00000360: c6ee 29bd 0b70 853d c771 b5bc 4e56 723c
00000370: 5f4b 42bc 538f 9fbd 28f6 423e bfbe 8ebd
00000380: 8083 b43d 745e 25be 3887 09be 2124 9f3d
00000390: 559e 09bd 32ac 02bc 56ee 73bd c619 263e
000003a0: abfc 57bd 71fb c2bd 7f62 2abe bb71 903d
000003b0: 2b85 0d3e 8e88 04be e3ab 39bc 1a72 d63d
000003c0: e37f ee3c 4a24 923c fc3e 6c3d e460 db3c
000003d0: 6fd4 33bc bcad 8dbd 3e74 333d 2f83 b0bd
000003e0: dff9 3cbe f29a 5f3d 46a8 dc3d 87a0 29be
000003f0: 5686 cabc d71b bdbd 6613 19be 2b7e 35bd
0.045099214 0.24098559 0.0034903486 0.06924977 -0.056878395 -0.13295512 0.020688256 0.04492141
-0.12253518 -0.022115748 0.07657987 -0.020480007 -0.097331606 0.09894808 0.042856317 -0.04151513
-0.06524235 0.021146175 0.05893503 -0.048480418 -0.10037386 0.015327109 -0.14196174 0.06486263
0.23535281 0.09508499 -0.15679054 -0.09141083 0.048326973 -0.0011076018 0.07890849 0.05196085
0.012617042 0.036130458 -0.11492914 0.09109632 -0.13833633 -0.082940124 0.10906464 0.18357721
0.026676973 0.111399084 0.18900022 -0.19579077 0.1351953 -0.061757214 0.043531295 0.14083013
0.063168 -0.027789239 0.14711867 -0.0167151 -0.03379671 0.015415735 0.118732646 0.08460788
0.10909263 0.071894415 -0.063270114 -0.16318224 -0.044705205 -0.027574215 -0.1483725 -0.041899156
0.02881358 -0.02367933 -0.24962968 -0.0546099 0.12418523 0.031107847 0.037596077 -0.15215921
-0.07592761 0.04743039 0.080730535 0.007815818 0.02088838 0.10115286 0.1107602 -0.109485015
-0.0064768842 0.018358797 0.09386419 -0.07845688 0.014727443 -0.04303899 0.14297588 0.06030789
-0.083948955 0.032113247 -0.076186225 -0.06048411 0.053328212 0.050172072 0.017016638 0.107782684
0.15347528 -0.10859378 -0.010076653 0.09902961 -0.021065205 -0.0878866 0.045200665 0.16089374
-0.05415877 0.048367485 -0.10504098 0.054816227 -0.047098204 -0.096941225 0.05721652 -0.07717167
0.085930064 -0.0146406405 0.15156794 0.038235787 -0.026733154 -0.12344596 -0.11654706 0.11275532
-0.11456391 0.04398578 -0.102480315 -0.114944205 0.013915518 -0.045691986 -0.052909747 -0.05661249
-0.045145616 0.07067841 0.08387126 0.0626363 0.028539179 -0.10312829 0.055740405 -0.035116952
-0.026625082 -0.058942165 -0.00053996337 0.020522084 -0.05567087 0.08120334 0.0609956 0.0013581425
-0.18118931 -0.09041384 0.08026476 -0.080754876 0.024879977 0.05865472 -0.11022689 -0.04467844
0.06396768 0.1243422 -0.053896774 -0.08880958 0.079810806 -0.082119875 0.028401047 0.089983545
0.011548815 -0.09423356 -0.12318531 -0.111481495 0.043608822 0.04936984 -0.043905545 -0.064935714
0.13358076 -0.0076407045 0.023334108 -0.11756759 -0.039495304 -0.09153893 -0.07169342 -0.051673204
0.064021006 -0.010153219 -0.054603323 -0.13371667 -0.01625585 -0.05601789 -0.12202719 0.0077308714
-0.10310106 0.11499178 0.056528427 -0.091338456 0.0061896946 -0.07898298 -0.12272312 0.075398296
0.09978404 0.016200997 0.15593019 -0.11977561 -0.0072114035 0.03445098 -0.16399503 0.19226518
-0.060412813 0.18767379 0.053955693 -0.064044535 -0.11737711 0.12447484 0.0059357923 0.119584
0.027932206 0.06755953 -0.015528637 -0.0238542 -0.11860558 0.043411404 -0.09785453 -0.06425829
-0.041487478 0.06515511 -0.02214898 0.014791084 -0.01185879 -0.07791009 0.19039214 -0.06969976
0.08814144 -0.16149312 -0.13430488 0.07770563 -0.033598263 -0.007975625 -0.059553467 0.1622077
-0.052731197 -0.09520615 -0.16639136 0.07052942 0.13820331 -0.12942716 -0.011332485 0.10470982
0.029113716 0.01783957 0.057677254 0.0267796 -0.010975941 -0.06917903 0.04381203 -0.08618771
-0.18454693 0.054591127 0.10774283 -0.16565143 -0.02472226 -0.09233826 -0.14948806 -0.044309776

lstm.weight_ih_l0_reverse f4 [256, 275]
00000000: 0eea f83b ff62 27be eab6 fabd d0d8 a8bd
00000010: c9c4 8c3c 5e2b 193d 8c53 32be a9ae c33c
00000020: 4256 0bbe 583f a33d d2ce 99bd c2d6 9b3d
00000030: 0e98 5fbb 6b28 3fbe 216c babd 0130 babd
00000040: a0a7 e4bd 1be4 ba3d d95e e6bd 8ae3 0ebe
00000050: 821a fcbc e84c 6ebd db9f 0cbe b37c b0bd
00000060: 8428 eb3c 910c d8bc ddf4 eb3c a94f adbd
00000070: 8036 ddbb 74ed 47be 5dba 25be 1eea 32bd
00000080: b1a8 a4bd a20c 18bd a37a 27be a27d 31bd
00000090: 3f72 153c 0576 1bbc ec27 ccbd 9356 d0bc
000000a0: 27e8 93bd 16e0 debc 305a fdbd ad92 94bd
000000b0: ec01 573c 43d4 82bd 1304 dabd e3af b53c
000000c0: 8348 b5bc afa2 343e fca6 b7bd 9a09 233c
000000d0: baae e6bd 44f1 6dbd 1c31 afbd a85a 13be
000000e0: 3da5 ae3d 0e27 74bd d093 91bd 724b 8fbd
000000f0: 1428 debd c918 e53d 5e19 10be 1b37 03be
00000100: 29ce 11be 3e57 fdbd 5b8d 36be b92c 093e
00000110: c5b6 1dbe 0f11 e6bc 4e2c e03c 0b09 7a3c
00000120: 40b5 303e e25c 06bc 4311 41be f1aa 02be
00000130: 91e8 c5bd 1490 0abe cf1a c4bd 1e98 1ebd
00000140: 6b76 1bbe 586e 42be 2a6a 2fbe 8583 a6bd
00000150: 919b 823c e0fa c6ba fb50 0c3d c6bd b9bd
00000160: b254 ffbc 0bbe 2ebe 62d4 0bbe 24a3 97bc
00000170: e20f eb3d 254a 75bc 786e a03c 858f 17be
00000180: 5e4f 2fbe 370f 4ebe 7b41 03be 18b3 1ebc
00000190: 970d 79bd e995 ff3c d690 14be c6ac e03c
000001a0: 4d57 fabc fa8d 49be ab26 1fbe 1285 a43c
000001b0: e678 9b3c 3447 1f3d ecc5 24be a148 e43c
000001c0: ae06 b8bd e84b 51bc d256 c9bd b977 adbd
000001d0: f85c edbd 7b43 09bd 93dd dabc 015c 3f3d
000001e0: 6229 7e3c 707b 8a3c 4f86 27be 8255 f7bd
000001f0: c9ce c73c 774a bdbc a1ac d6bd 64c9 9dbb
00000200: 4896 78bd f950 e4bd 5880 65bd 006f cc3c
00000210: 09b8 2ebe 1834 3ebd 8393 44be b205 a4b9
00000220: 4c58 e23d 609a 4fbc a63d 183d 2c76 c0bd
00000230: 7dca 09be 587a a6bd fda4 d53c 5c22 2abe
00000240: 1816 6abd dc79 36be 209f b23c a92d 5fbc
00000250: 8ca9 67bc 4155 f5bd c163 3bbe 71c3 d83c
00000260: 301b 7f3c 6c38 a2bd 55e9 13bd 5e37 17be
00000270: d7f9 e9bd 9c1c 40bd aa0a e5bd 4479 0bbd
00000280: 4585 e6bd 1e6d bdbd be57 7bbd c47e 11bd
00000290: 7b47 25be 4ab5 87bd 9b50 22be d883 82bd
000002a0: 0c87 773b 737e d33b e77b 03be f526 3fbc
000002b0: 828a 98bc 903e 28be 6df5 ce3d 533f 8abc
000002c0: 99f1 38be 8be3 a43c 2fbd 0cbe b27f 12be
000002d0: 3e9f 94bd 174d c03d e4ae a4bc ccd5 10be
000002e0: 8e4e 18be e559 e8bd 8a32 9d3c 8cda c7bd
000002f0: 1e7f c5bd 6726 493e f664 09be 7c22 b13c
00000300: b999 e0bd 3710 17be 61b8 33be bda4 dabd
00000310: d63d 86bd 7ceb 303d b801 3e3d 1ce5 993c
00000320: 64f9 3e3d 7bf4 1bbe e1f7 08bd a8c9 9abd
00000330: 79d0 d3bb 1011 0dbe 75a8 4ebd 7d53 2bbd
00000340: e26f f43c 251d 1ebe 7330 f4bd fb4a 23be
00000350: 8d51 0ebd abf1 26bd 6e2a 36bd 8133 09be
00000360: ead5 b5bd 6755 f6bc 138f 383e 044d a83d
00000370: 501d d4bd 486a e8bd 9eb9 833d 27c1 1c3e
00000380: bac0 323e 5a93 c53d b20a 903d acd5 113e
00000390: dc9d fa3c c3bf 7c3d acda be3d 5ef9 5a3c
000003a0: e900 cabc f203 d4bc de2e e53d 20ed 6e3d
000003b0: a296 873d a0bd b73c d257 f2bc 99ab 863d
000003c0: 052c 903c 5df5 9d3d 01e1 7cbd 36a3 9bbc
000003d0: 40ed 24bc c9cd 0ebe 674c 3bbe 506b 04be
000003e0: 9245 663d 7c44 a8bc b833 1d3d d3fd cebd
000003f0: fbe6 35be c5cb 28bd 7223 fabc 1e99 81bd
0.007596261 -0.16346358 -0.12241919 -0.08244479 0.017183678 0.037394874 -0.17414683 0.023886995
-0.13607123 0.07971066 -0.07510151 0.07609321 -0.0034117731 -0.18667762 -0.09102655 -0.09091187
-0.111647844 0.09125539 -0.112485595 -0.13953987 -0.030774359 -0.058178812 -0.13732855 -0.086175345
0.028705843 -0.02637318 0.028803283 -0.084624596 -0.0067508817 -0.19524175 -0.16184373 -0.043680303
-0.08039988 -0.037121423 -0.16355376 -0.043332703 0.009121477 -0.009488587 -0.09968552 -0.025431907
-0.07222014 -0.027206462 -0.123707175 -0.07254539 0.013123017 -0.06388142 -0.10645308 0.022178596
-0.022129303 0.17640184 -0.089673966 0.00995102 -0.11263795 -0.058091417 -0.08554289 -0.14390051
0.085276105 -0.059607558 -0.07108271 -0.06996812 -0.10847488 0.11186368 -0.14072177 -0.1281399
-0.142388 -0.12370156 -0.1782736 0.13395967 -0.15401752 -0.028084306 0.027364876 0.015260945
0.17256641 -0.008200856 -0.18854241 -0.12760521 -0.09663499 -0.13531524 -0.09575426 -0.03871929
-0.15181892 -0.18987405 -0.17130342 -0.08130554 0.01594332 -0.0015180968 0.034256916 -0.090693995
-0.031168316 -0.17064683 -0.13655236 -0.018510409 0.11477639 -0.014971291 0.019583926 -0.14800842
-0.1712012 -0.20122992 -0.12817948 -0.009686254 -0.060803976 0.031199412 -0.14508376 0.027426135
-0.030559206 -0.19683066 -0.15542094 0.020082984 0.018978547 0.038886264 -0.16091126 0.027866663
-0.08985649 -0.012774445 -0.09831013 -0.08470101 -0.11589998 -0.03351162 -0.026716983 0.0467186
0.015512796 0.016904563 -0.16359828 -0.12076856 0.024390595 -0.023106797 -0.10482145 -0.0048152674
-0.060690194 -0.11148257 -0.0560306 0.024955273 -0.17062391 -0.0464364 -0.19196896 -0.0003128476
0.110519975 -0.012671083 0.037168168 -0.093975395 -0.1345615 -0.08128804 0.02607965 -0.1661467
-0.057149976 -0.17819923 0.021804392 -0.013621726 -0.014139544 -0.119791515 -0.18299772 0.026460381
0.015570447 -0.07920918 -0.036111195 -0.14767215 -0.11424606 -0.046902284 -0.11183675 -0.034051195
-0.11255888 -0.09249328 -0.061362974 -0.035521284 -0.16140549 -0.06626375 -0.15851061 -0.063728034
0.0037769703 0.006454283 -0.12840234 -0.011667003 -0.018620733 -0.16430116 0.10105405 -0.016875898
-0.18060912 0.020128032 -0.13744043 -0.14306524 -0.072569355 0.09389704 -0.020102926 -0.14144057
-0.14873716 -0.11345271 0.019189138 -0.097584814 -0.09643386 0.19643556 -0.1341742 0.021622889
-0.1096682 -0.14752279 -0.17550804 -0.106759526 -0.06554763 0.043193325 0.046388358 0.018786006
0.046624556 -0.1522998 -0.03343952 -0.07557994 -0.006464061 -0.1377604 -0.050453622 -0.041827668
0.029838506 -0.15440805 -0.119233035 -0.15946572 -0.03474574 -0.040757816 -0.044474058 -0.13398553
-0.088786915 -0.03007002 0.18023328 0.082178146 -0.103571534 -0.113483965 0.06431888 0.15308057
0.17456332 0.09647246 0.0703329 0.14241666 0.030592851 0.061706316 0.09319052 0.013365118
-0.024658637 -0.025880788 0.1119058 0.05833161 0.06620528 0.022429287 -0.029582892 0.065756984
0.017599115 0.07712815 -0.061738018 -0.018998723 -0.01006633 -0.13945688 -0.18290864 -0.12931561
0.05621869 -0.020540468 0.0383794 -0.10107007 -0.17763893 -0.041209955 -0.03053448 -0.06328033

lstm.weight_hh_l0_reverse f4 [256, 64]
00000000: 1087 363d 1ee0 e33c 6758 8b3c 6c28 adbd
00000010: 2867 fbbd 5fbe 5c3d d575 633c db5e ecbb
00000020: 2bc8 b6bd 1024 d8bd d7db 863b b51e 79bc
00000030: eb07 bcbd d472 08be a069 ac3d c3e4 f6bc
00000040: 2d9c 2dbd 30d5 e43d 2ecd 4abe 5385 77bd
00000050: 7c6a 98bc 38ed 93bc 82c6 363e 751d 97bd
00000060: ce4e b8bd 21d7 653b 55da 9dbd 31ec e6bd
00000070: babb fdbd 6617 a83c b27d 36be 714f 99bd
00000080: 1518 ef3c 7ebc 48bc 3c37 ac3d 86d5 203c
00000090: 99ff 263e c26f e13d 3cba e5bd 1f42 2b3e
000000a0: 1ed4 97bd 479a 88bd 976b 013c 02d3 0abe
000000b0: 2354 bfbd 34de fdbd 8a7d 353d d1de ed3d
000000c0: dcee 20bd d46e bf3d 9d79 243e c89e cebd
000000d0: 4303 74bd 1461 e0bd 6a1e ecbc b8dd ccbd
000000e0: 88f9 b33d 1412 353e 9331 f13b 309b da3d
000000f0: 38e6 8f3d 0815 703d e49b 95bd 6065 253d
00000100: ea97 c83d c110 833d 048f 81bc 5a56 19bd
00000110: caa0 9f3d 6479 d23d fbb5 1e3e 7888 82bd
00000120: 9cb3 663c 7665 283d 41d0 45bd 7a5d fd3d
00000130: eb21 253e 5749 aabd e58b c4bc b3b1 20bc
00000140: b26f ae3d 1a05 d73d 8cf1 0ebe 24cb cebd
00000150: da55 ed3c aa1d 9b3c f666 493c f367 973d
00000160: 4799 9f3d c385 0cbe 952f 883d 3597 cb3d
00000170: a8fd 08bd 8f95 e0bd 9261 10bd 161f c0bd
00000180: ea0d f4bd 43ed 84bc 1589 2e3d 60b6 f43c
00000190: 9496 17bd 0732 be3d 0d60 fabd 7984 183d
000001a0: c4be f7bd 0eaa b4bc 1d4a f13d 3de5 df3d
000001b0: 130f 98bd 1e31 ac3d 9fe8 c7bd 733f af3b
000001c0: ae3a 9b3d d73c b93c 3eec a93d 8159 c0bd
000001d0: e6e1 c5bd 6fe1 c53d 041e febc 1fae a7bd
000001e0: c1e1 c53d 3c2c 5e3d ecb6 a2bc 172f b2bd
000001f0: 7de2 a03d 4f9c 75bd a0a9 38bd 7b09 043e
00000200: f582 c23c b86d 53bd 2255 15be 1157 54bd
00000210: 06e6 87bd 7fd4 dcbd 3a2e c93d 38b9 31bd
00000220: dd40 9bbd 3f60 84bc 5357 8abd f69f 4f3c
00000230: 812e 843d 5f49 373c c22e cb3c 31db e2bd
00000240: fb42 0bbd 66ae d63d 95c5 19be 2a51 8cbc
00000250: 3088 3bbd b18d 3abe 7713 e739 da09 733d
00000260: 84be 22be a222 85bd 2c93 6b3d bd4c adbd
00000270: 2bb5 a73d 4fea 9bbd e31f 24bd c7f0 52bd
00000280: 242b 02be e407 1a3d f555 2abd 9cc6 d83d
00000290: 943d 3c3e 50a3 c03d 46be 1cbe 8c83 d3bc
000002a0: e86e adbd cd89 94bd 139e 4ebd 86af 8b3d
000002b0: 9fc3 3a3d ab66 39be 845c e23c f1f5 f53c
000002c0: ce20 b13c ad71 8ebd 4d2d 073e 627a 6b3d
000002d0: a0a4 083e 224b eabc 2f55 423c c188 f73b
000002e0: e5e1 1b3e cc09 203d 3729 a4bd 72bc 22bd
000002f0: 0ed7 983c f090 043e ab23 ce3c 0285 3bbd
00000300: a4bb 84bd 6df5 8c3d d2ff 653d c4d7 32bd
00000310: 71a5 5b3d 6a47 c63c 0c22 24bd 9566 5b3c
00000320: d044 8dbd fb19 f1bd 6bff 763c 104c 0dbd
00000330: 29c5 0ebe 9d3a 0f3d 0077 ec3d 1bbb e93c
00000340: 90b2 a03d 32e3 d73d 71fa e1bc 63ed aa3c
00000350: 1ace 613d a879 cb3d e407 723c 04ef f1bd
00000360: cdf1 25bd 849a d2bd f01c f13d e043 9e3d
00000370: 6b1b c3bd c514 97bd 47e8 16bd e0e6 6abd
00000380: d302 82bc 03d5 f93d 4d8b d23b 8105 e83c
00000390: f314 e4bd e59d 0cbe f91a 76bc 9792 eebb
000003a0: 000c 2e3e f876 c4bd f06f d33c b949 413b
000003b0: 9354 dfbd 6f66 013e 1ee8 18bd e3f6 a5bd
000003c0: 4358 b43d 2421 d83d 6716 7f3b 88c3 1f3d
000003d0: 395b 0abd 8752 a5bd e549 683d 086e 84bd
000003e0: 7be5 fd3d 6a67 8a3d 1fb9 543c 191b 01be
000003f0: 0d95 b1bd 6361 93bd 5238 e0bd 1e4b 99bb
0.0445624 0.027816828 0.017009927 -0.084549755 -0.12275535 0.05389249 0.013883074 -0.007213456
-0.08924898 -0.105537534 0.0041155624 -0.015205075 -0.09181198 -0.13325053 0.08418584 -0.030138379
-0.04238527 0.11173475 -0.19804832 -0.060429882 -0.018605463 -0.01805745 0.17849162 -0.07378665
-0.08999406 0.0035070854 -0.07707659 -0.11275519 -0.123893216 0.02051897 -0.17821386 -0.07485855
0.029186288 -0.012251971 0.084089726 0.009816533 0.1630844 0.11007644 -0.11217162 0.16724442
-0.07413505 -0.06670051 0.007899187 -0.13557056 -0.0934222 -0.123958975 0.044309177 0.116147645
-0.039290294 0.09347311 0.16062017 -0.10088879 -0.059573423 -0.10956016 -0.028823096 -0.10003227
0.08787829 0.17682678 0.007360646 0.10674131 0.070263326 0.058613807 -0.073051244 0.04037988
0.097946 0.0639968 -0.015815265 -0.037435867 0.0779434 0.1027706 0.15499108 -0.063736856
0.014080908 0.041112386 -0.04829431 0.12371345 0.1612622 -0.0831477 -0.023992488 -0.009807992
0.08517398 0.1049902 -0.1395933 -0.1009734 0.028971601 0.018935043 0.012292614 0.073928736
0.07792907 -0.13722901 0.066497006 0.0994095 -0.03344503 -0.10966026 -0.0352493 -0.09380929
-0.119167164 -0.016226416 0.0426112 0.02987212 -0.037008837 0.09286886 -0.122253515 0.03723571
-0.120969325 -0.022053745 0.11781714 0.109323956 -0.0742475 0.08407806 -0.09761166 0.00534814
0.07579552 0.022612019 0.08297013 -0.093920715 -0.09662227 0.09662139 -0.031020172 -0.08187508
0.096622 0.054241404 -0.019862615 -0.08700388 0.07855699 -0.05996352 -0.045083642 0.12894242
0.023744086 -0.051618308 -0.14583257 -0.051840845 -0.0663567 -0.10782718 0.0982327 -0.04338953
-0.07580731 -0.016159175 -0.06754937 0.012672415 0.064541824 0.011186927 0.02480257 -0.11076964
-0.033999424 0.104824826 -0.15016778 -0.017128546 -0.045784175 -0.18218113 0.00044074256 0.059335567
-0.15892988 -0.06500746 0.0575134 -0.08461902 0.08188852 -0.0761305 -0.040069472 -0.051499154
-0.1271177 0.03760518 -0.04158588 0.10584757 0.18382865 0.094061494 -0.15306959 -0.025819562
-0.08468419 -0.07252846 -0.05044372 0.06820588 0.045596715 -0.18105571 0.027632006 0.0300245
0.021622088 -0.06955276 0.13200875 0.05748976 0.1334405 -0.02860028 0.01186113 0.007554144
0.1522289 0.039071843 -0.080156736 -0.039730497 0.018657234 0.12945914 0.025163492 -0.045781143
-0.06481102 0.06882749 0.056152172 -0.0436628 0.053624574 0.024203975 -0.040071532 0.013391157
-0.068978906 -0.117725335 0.015075545 -0.034496367 -0.13942398 0.034968007 0.11546135 0.028531602
0.07846558 0.10541381 -0.02758524 0.020865148 0.055128194 0.099353135 0.014772389 -0.11813167
-0.040513802 -0.10283378 0.117730975 0.0772779 -0.09526714 -0.07377008 -0.03684261 -0.057349086
-0.015870487 0.12198832 0.0064252974 0.028322937 -0.11136808 -0.13732107 -0.015021079 -0.0072806585
0.16996765 -0.09593004 0.025810212 0.0029493405 -0.10904803 0.12636732 -0.03733074 -0.081037305
0.08805897 0.10553196 0.0038923265 0.039004833 -0.033778403 -0.080723815 0.056711096 -0.06466299
0.123972856 0.06758006 0.012983589 -0.12607993 -0.08671007 -0.071963094 -0.10948242 -0.004678144

lstm.bias_ih_l0_reverse f4 [256]
00000000: 5d06 35be 344e 19bd 0dd9 a13c 2cad 04bd
00000010: 9277 f8bd a749 4bbd 4ad7 9d3d ed1a f43c
00000020: f809 b03d fa5a ca3c 22c8 93bd 0f99 993d
00000030: 094b 2e3e f5b7 1d3c 8cdb d63d 102b 0c3d
00000040: e6d8 073e 9f9a 8f3d e6fa db3d 7e68 c5bd
00000050: 930a 8fbd 6777 2fbd 7c37 a23c fcaa 9abd
00000060: 59b0 2bbe 1a72 913d 4a23 043e bcdd 913c
00000070: 99d6 3dbd dfc3 e7bd 9d95 1c3e 1af2 03bd
00000080: d2d3 b03d aeeb 10be fcab 8cbd 0da8 9fbd
00000090: 8682 053e 133a 3a3e c6c2 dcbd a495 38be
000000a0: 75ff c0ba a238 a83d 7c6a 57be 4b91 7abd
000000b0: 8378 e9bd fd83 e8bd f851 ba3d a894 f33d
000000c0: b7aa 89bd 86c5 ddbd abc4 013e aaae 0bbd
000000d0: 6e05 253e e42c f3bd 6e91 27be 5cd6 593d
000000e0: e1db 2ebe 8d19 853d 6db4 593d e4f2 0fbd
000000f0: d41b 983c 4385 a93c 76bc bd3d 92aa 7e3d
00000100: c9e5 f7bd 81c1 bbbd e9c7 13bc 9cb4 09be
00000110: a126 bdbd 457e 9dbc 688d eabb eaa4 f83d
00000120: b894 96bd 10f6 f23d 711a 3cbe 7580 ebbd
00000130: 2f7c b0bc e2e9 e33d bf03 2c3c aef1 8abc
00000140: a12c 8f3d a1f4 65bd ad74 15bd 235a 5c3d
00000150: 4faa 053c 9644 88bd e807 ba3d b0ef a63d
00000160: 0300 f03c c77f 0dbd ac6b 08bc 4f74 b9bd
00000170: 61a7 ec3d 660c 9a3c 38e7 e53d bf13 9cbd
00000180: 8357 d53d d1fa 943d e7c4 25be 8f20 b83d
00000190: 7199 1a3e 5603 bdbd 8a98 5e3d 009f 85bc
000001a0: 7d76 2d3e 32e1 46bc cd8b 95bd 1cfb 093e
000001b0: 78ce da3d 8c66 1a3c 5d39 90bd 329b f3bd
000001c0: 311c 04be 5b72 96bd 5746 9939 e366 02be
000001d0: 0ccb 2dbd 4c74 ff3d 8460 0cbd 1862 10bd
000001e0: dcc1 053d 61db 813d 38a3 6bbd b736 08be
000001f0: 7057 87bc 820e a1bd 4c45 5dbd 40d5 88bd
00000200: 32e0 2f3d ab30 84bd f9ae 36bd 85be f8bd
00000210: 7190 a9bd c303 c9bd c7fd 7bbd 1ff7 633d
00000220: fa8c ce3d 1070 a6bd 5443 4ebd d914 aebd
00000230: 9da4 05bd a384 083c 8197 253e 2213 88bd
00000240: 469b 16be aaff c93d 775c 2b3c c3ce 613c
00000250: f598 2cbd 9b72 57bd 20ef a83d 9316 6dba
00000260: c636 b9bd 1ef9 b63d 5eaf 97bd d0fd f93c
00000270: 875b 733d b0f8 9c3c edd7 263e d22d c33d
00000280: 964f f1bd 0058 07bd ad12 ca3d da2a a6bd
00000290: 9b35 14be 04a0 a33d acb0 ba3d 2522 3dbd
000002a0: 1acf 2b3e 30a4 a9bc 8008 debd 6f7f 6a3d
000002b0: 2fc0 14bd bcc5 7dbd 826b b4bd b02a 9fbc
000002c0: ce6d d63c 112a e03d e8f5 ff3c 307c 093c
000002d0: 5cdc 8e3d 0c41 c3bd 04b1 f73d 4863 fe3c
000002e0: 56bb cfbc c20c b73d 4359 81bc 2e75 baba
000002f0: 9737 0dbe 538a c3bd 62fa bf3c 54a5 acbd
00000300: 9f15 89bd 8525 32be 917a 51bd ebcb de3b
00000310: dba2 1b3d d3b8 303d 3134 623d 4704 0fbd
00000320: ed47 b6bc deac a9bd 4f42 023c 7497 783d
00000330: c879 0c3e 41ba 40bd 9103 963d 12af 743d
00000340: 0c78 e43d b62a 8b3d 8571 b5bd c561 8d3d
00000350: 42c5 f2bc 7829 23be edc8 a53d a5ab ecbd
00000360: 9624 a63d 428d 5fbc 1362 43bc 50cd 36be
00000370: 581c 0ebe 2a11 c23c 55ff 63be f63c aabd
00000380: ba89 6bbd 0b46 b03d 4439 223c 2ea9 0f3e
00000390: 17fb 8a3d b81f b5bb f2a3 dc3d c053 febc
000003a0: cd9d 393e d85e be3c 3c78 debd 6ab0 333e
000003b0: 50c6 7c3d cad1 3ebb 3062 a9bd a457 1d3d
000003c0: 9996 033e 6777 ecbd 45f9 2abd 98a5 133e
000003d0: 6e24 7cbd ab17 fa3d 2e04 2bbe 0669 a4bd
000003e0: 4c82 93bb 5c0c f83b d11f 84bd 0b3b a33c
000003f0: d499 a7bd 35ad b8bc 1d37 7abc 102b 213e
-0.17678209 -0.037428096 0.019756818 -0.032391712 -0.12132181 -0.049630787 0.07707079 0.029797995
0.085956514 0.024701584 -0.07215907 0.07499897 0.17020811 0.009626378 0.10491094 0.034220755
0.13266334 0.070119135 0.107412145 -0.09639071 -0.06984439 -0.04283848 0.019801848 -0.07552144
-0.1676649 0.07101841 0.12904087 0.017805927 -0.046347234 -0.11316656 0.15291448 -0.032213308
0.086341515 -0.14152405 -0.06868741 -0.07795725 0.13038072 0.18186216 -0.107793376 -0.18025833
-0.001472457 0.08213927 -0.21036714 -0.06117372 -0.11399939 -0.113533 0.090976655 0.11893588
-0.067220144 -0.1082869 0.12672679 -0.03410212 0.16115353 -0.118737966 -0.16364071 0.053182945
-0.17076065 0.06499014 0.053150583 -0.035143748 0.018567957 0.020693427 0.09264462 0.062174387
-0.12104375 -0.09167767 -0.00901983 -0.13447803 -0.092358835 -0.019225249 -0.00715797 0.1214083
-0.073525846 0.11863339 -0.18369462 -0.114991106 -0.02154359 0.11128594 0.01049894 -0.016960945
0.06990934 -0.0561415 -0.036488224 0.0537969 0.0081582805 -0.06653707 0.09083539 0.081511855
0.02929688 -0.034545686 -0.008326452 -0.09055387 0.115553625 0.01880474 0.11225742 -0.07620954
0.10417082 0.07274402 -0.16188394 0.08990585 0.15097596 -0.09229152 0.05434469 -0.016311169
0.16939731 -0.012138652 -0.073020555 0.13474697 0.10683912 0.009423863 -0.07042191 -0.118948355
-0.12901379 -0.0734603 0.0002923484 -0.1273456 -0.04242997 0.12473354 -0.034271732 -0.0352498
0.03265558 0.06340671 -0.057528704 -0.13302122 -0.016521186 -0.07864095 -0.054021165 -0.06681299
0.04293842 -0.06454595 -0.04460046 -0.12145714 -0.08279503 -0.098151706 -0.061521318 0.055655595
0.10085483 -0.08126843 -0.050357178 -0.0850007 -0.03262769 0.008332404 0.16171075 -0.06644274
-0.1470767 0.09863217 0.010459057 0.013782206 -0.04213806 -0.05259953 0.082487345 -0.00090441963
-0.0904365 0.08934234 -0.074064955 0.030516535 0.05941346 0.019161552 0.16293307 0.09530224
-0.11782758 -0.033042908 0.098668434 -0.08113642 -0.14473574 0.07989505 0.09115729 -0.04617514
0.16778222 -0.020708174 -0.10841465 0.057250436 -0.036316093 -0.061956152 -0.08809568 -0.019429535
0.026175406 0.109455235 0.031245187 0.008391425 0.06975624 -0.09533891 0.1209431 0.0310532
-0.025357883 0.0893798 -0.015789634 -0.0014225596 -0.13790737 -0.095478676 0.023434822 -0.08429971
-0.06693577 -0.17397125 -0.05114228 0.0067992113 0.037997108 0.043145012 0.055225555 -0.03491619
-0.022251094 -0.08284925 0.0079503795 0.060691312 0.13718331 -0.047052626 0.07324899 0.059737273
0.111557096 0.06795256 -0.08859543 0.06903414 -0.029635075 -0.15933788 0.08094964 -0.11556176
0.08112447 -0.013644518 -0.011925238 -0.17851758 -0.13878 0.023689825 -0.2226537 -0.083124086
-0.057504393 0.0860711 0.0099013485 0.1402938 0.06786173 -0.005527463 0.107734576 -0.031045794
0.18126602 0.023238584 -0.10862777 0.17547765 0.061712563 -0.0029116743 -0.08270681 0.03841366
0.12850417 -0.11546212 -0.04174163 0.14418638 -0.06155818 0.122115456 -0.16700813 -0.08027844
-0.0045016166 0.0075698327 -0.06451381 0.019925615 -0.08183637 -0.022543529 -0.015271929 0.15739083
